data.pth (torch, 5463 bytes, 6 tensors)

l1.weight f4 [8, 57]
0	0x3f01b543	0.5066721
1	0x3f28dbd6	0.65960443
2	0xbfb0a8e5	-1.3801543
3	0x3e819da7	0.25315592
4	0xbe484807	-0.19558726
5	0xbe8cf045	-0.2752706
6	0x3cfd818b	0.03094556
7	0x3d6c3b0a	0.05767349
8	0x3ed898a4	0.42303956
9	0xbf8f6325	-1.1202132
10	0xbeafd975	-0.34345594
11	0x3f09cb8b	0.53826207
12	0xbf8f3d49	-1.1190578
13	0x3fb48253	1.4102272
14	0xbe507f6a	-0.20361105
15	0x3fc57d3a	1.5428841
16	0x3ebf8426	0.3740551
17	0xbe904f39	-0.28185442
18	0x3d1b16c2	0.0378635
19	0xbf206024	-0.626467
20	0x3ec74fee	0.3892817
21	0xbf15cc00	-0.58514404
22	0xbf205464	-0.6262877
23	0x3a4c171b	0.00077854254
24	0xbf0b10c8	-0.5432248
25	0x3e1f57f5	0.15560897
26	0x3f5fd0a6	0.8742775
27	0x3e12bb3d	0.14329238
28	0xbd1da445	-0.038486738
29	0x3f5bdb51	0.85881525
30	0x3dd48aca	0.103780344
31	0xbd749bb1	-0.05971879
32	0x3eb93637	0.36174175
33	0x3f469b77	0.7758097
34	0x3ea63a3f	0.32466313
35	0xbf9bd940	-1.2175674
36	0x3f262633	0.6490204
37	0x3e889314	0.26674712
38	0x3ee73dde	0.45164388
39	0x3e98e933	0.29865417
40	0xbf96b798	-1.1774778
41	0x3ccf1a97	0.025281234
42	0x3edd917a	0.43275052
43	0x3f02a602	0.5103456
44	0x3f239674	0.6390145
45	0x3ebba624	0.36650193
46	0x3f87f071	1.0620252
47	0x3eeda9a0	0.46418476
48	0xbe6c3889	-0.23068441
49	0x3e8128ac	0.25226343
50	0xbc7db7c2	-0.015485706
51	0x3c98994e	0.018627789
52	0x3e9da2e3	0.30788335
53	0x3f495e98	0.78659964
54	0x3ed4f55c	0.41593444
55	0x3ded92e5	0.116002835
56	0x3eb71bbe	0.35763353
57	0x3e83cdcf	0.25742957
58	0xbe93077c	-0.28716648
59	0x3f629c62	0.8851987
60	0x3dac1964	0.084032804
61	0xbec62bf6	-0.38705415
62	0xbd793f48	-0.060851365
63	0x3dcb39e0	0.09923148
64	0x3f2fdf48	0.68700075
65	0x3ec64c09	0.38729885
66	0x3fb66247	1.4248742
67	0xbe81dd9d	-0.2536439
68	0x3f659a7b	0.89688843
69	0xbf375248	-0.71609926
70	0x3f9c2585	1.219895
71	0x3c86621b	0.016404202
72	0xbf0730c6	-0.528088
73	0x3d9a1d3f	0.075251095
74	0xbe953fc0	-0.291502
75	0x3f4f11d3	0.8088657
76	0xbf0ba3ea	-0.5454699
77	0xbd1ef22f	-0.038805183
78	0xbf0b930f	-0.5452127
79	0xbf0b9d0d	-0.54536515
80	0xbf7b72cd	-0.9822205
81	0xbf4320d2	-0.76221955
82	0x3ea848f0	0.32868147
83	0x3f2f82b3	0.68558806
84	0xbdcea0d2	-0.10089268
85	0x3e81f0a6	0.25378913
86	0x3f225118	0.6340499
87	0xbeb671ee	-0.35633796
88	0xbc5c8040	-0.013458312
89	0x3e5503b2	0.20802191
90	0x3e0174dd	0.12642236
91	0x3cd65e6d	0.026168073
92	0x3f9cddb4	1.2255158
93	0x3f723d7d	0.94625074
94	0xbec36e3b	-0.38170037
95	0x3f2c67e0	0.67346
96	0x3e2f30a5	0.171084
97	0x3f85ebbb	1.0462564
98	0x3eaa406c	0.33252275
99	0x3e831739	0.25603655
100	0x3ece6b51	0.4031625
101	0x3f1c872f	0.61143774
102	0x3efaf04b	0.49011454
103	0xbf122375	-0.57085353
104	0xbe53a0ce	-0.20666811
105	0xbef5e8b8	-0.48029113
106	0x3e148aad	0.14506026
107	0x3e0db7e7	0.13839684
108	0x3e8828a5	0.2659351
109	0x3f0b6483	0.54450244
110	0x3f5b5c96	0.8568815
111	0x3ef04eed	0.46935216
112	0x3e9744e3	0.29544744
113	0x3f3a29e1	0.7272015
114	0x3e54e605	0.2079087
115	0xbd8f0b7d	-0.06984613
116	0x3f980cd4	1.1878915
117	0x3f0715bb	0.52767533
118	0xbcc605c6	-0.024172675
119	0x3e1d342b	0.15351932
120	0x3f07ff8e	0.5312432
121	0xbf181358	-0.59404516
122	0x3e8b78bf	0.2724056
123	0xbfd087d8	-1.6291456
124	0x3c7730f9	0.01508736
125	0x3ebc1e0e	0.3674168
126	0x3fd47dfc	1.6600947
127	0xbfb742b6	-1.4317234
128	0x3f89b646	1.075875
129	0x3f46e5cd	0.776944
130	0xbe956ff6	-0.29186982
131	0x3b4639a4	0.0030246759
132	0xbf1858b6	-0.5951036
133	0xbd53b416	-0.051685415
134	0xbe1c17d1	-0.1524346
135	0x3acfe049	0.0015859689
136	0xbcf099aa	-0.029370148
137	0x3f91d06e	1.1391733
138	0x3cbde15f	0.023178754
139	0x3e91efa2	0.28503138
140	0xbf184bcb	-0.5949065
141	0xbe7481f3	-0.23877697
142	0xbea62dc9	-0.32456806
143	0xbf18218e	-0.594262
144	0x3f3a3cd5	0.7274907
145	0xbe10f82e	-0.14157173
146	0xbe0dfbbc	-0.1386556
147	0x3e23cf00	0.15996933
148	0x3ec4cec8	0.38439012
149	0x3f91d792	1.1393912
150	0x3e9b395e	0.30317205
151	0x3ed1b21c	0.409562
152	0x3e1b35ff	0.15157317
153	0x3e22dd56	0.15904745
154	0xbfa2e462	-1.2725947
155	0xbeaad557	-0.3336589
156	0xbe7703ac	-0.24122494
157	0x3e0131c6	0.12616643
158	0x3cfe1da1	0.031019988
159	0xbe61e7e0	-0.2206111
160	0xbf06cc48	-0.5265546
161	0xbebcbba4	-0.36861908
162	0x3de32fae	0.110930786
163	0x3ef8b1a8	0.4857304
164	0x3f18088b	0.59388036
165	0x3deae8ff	0.11470222
166	0x3d82e9d6	0.06392257
167	0x3e81d77c	0.25359714
168	0x3d8b2c5e	0.06795572
169	0x3dc95ca9	0.09832127
170	0x3e881d07	0.26584646
171	0xbeb13503	-0.34610757
172	0x3ec44cce	0.38339847
173	0xbf231fc9	-0.63720375
174	0xbd3ff186	-0.046861194
175	0x3f097725	0.53697425
176	0x3ebca8f4	0.3684765
177	0x3e95924b	0.29213175
178	0x3ee5dc29	0.4489453
179	0xbe8e19f4	-0.27754176
180	0xbf10f471	-0.5662299
181	0x3f1c02f6	0.6094202
182	0xbf33322c	-0.6999843
183	0x3f81d6e5	1.0143706
184	0xbfad8983	-1.355759
185	0x3f19c65e	0.6006831
186	0xbf17aa6c	-0.5924442
187	0x3eadd872	0.33954197
188	0x3f30dc6d	0.69086343
189	0x3f02aeac	0.5104778
190	0x3f6941a1	0.91115767
191	0xbe290e7c	-0.16509432
192	0x3f74f13f	0.9568061
193	0x3f70dc97	0.94086593
194	0xbf9a3440	-1.2047195
195	0x3f76fbd5	0.96478015
196	0xbdcfffc8	-0.10156208
197	0x3f5f81b4	0.87307286
198	0x3f23231c	0.6372545
199	0x3ec378b1	0.38178018
200	0x3f4204ea	0.7578875
201	0x3eeea21d	0.46608058
202	0xbcee93b0	-0.029123157
203	0x3ed6d7b5	0.41961446
204	0x3e9acd59	0.30234793
205	0x3e17b76a	0.1481606
206	0xbf94ef2c	-1.163549
207	0xbf6d2fa8	-0.9265084
208	0x3ec97b2a	0.3935178
209	0xbeb224f6	-0.34793824
210	0xbe540b15	-0.20707352
211	0x3fb801e3	1.4375576
212	0x3f1abeab	0.60447186
213	0x3eda338e	0.42617458
214	0xbed987a0	-0.42486286
215	0xbf5e6b07	-0.8688206
216	0x3ee32a21	0.4436808
217	0xbf44b78e	-0.7684258
218	0xbe84887c	-0.2588538
219	0x3f167820	0.58777046
220	0xbc0f0f85	-0.0087317275
221	0x3e31618e	0.1732237
222	0x3d59db3a	0.053187586
223	0xbecd320a	-0.4007724
224	0xbf88d393	-1.0689567
225	0xbd782e54	-0.060591057
226	0x3e27e5b5	0.1639622
227	0xbed608f1	-0.41803697
228	0x3e3a5691	0.18197085
229	0x3dc13ebb	0.09435793
230	0x3fa044a9	1.2520953
231	0x3eff688c	0.4988445
232	0xbeab31e8	-0.33436513
233	0x3ebbeb82	0.36703116
234	0x3e9495aa	0.29020435
235	0xbf0404f2	-0.51570046
236	0x3ea31270	0.31850004
237	0xbf94a851	-1.1613866
238	0xbe90e7d2	-0.28301865
239	0x3f8652d1	1.0494024
240	0xbf86c92d	-1.0530144
241	0x3e95d12c	0.29261148
242	0x3f355adf	0.70841783
243	0xbe7d0dcb	-0.24712293
244	0x3ee28f0d	0.44249764
245	0xbe6ed376	-0.23322853
246	0xbf0412b4	-0.5159104
247	0xbf041f5d	-0.51610357
248	0xbea5eb91	-0.32406285
249	0xbf041e64	-0.5160887
250	0xbf0412fb	-0.5159146
251	0xbf8cfd4f	-1.1014804
252	0xbf202652	-0.6255847
253	0x3ef1968d	0.47185174
254	0x3f80bed4	1.0058236
255	0x3f25f282	0.6482316

l1.bias f4 [8]
0	0x3f45e726	0.7730583
1	0x3f0a372c	0.53990436
2	0x3f16cb92	0.58904374
3	0x3f42a032	0.7602569
4	0x3f01e321	0.50737196
5	0x3f0be7ff	0.5465087
6	0x3f658718	0.8965926
7	0x3f74fadf	0.956953

l2.weight f4 [8, 8]
0	0x3ff399ce	1.9031312
1	0x3e9a0d56	0.300883
2	0x3fcfa828	1.6223192
3	0xbe5589d7	-0.20853363
4	0x3fcd0b7e	1.6019132
5	0xbe320187	-0.17383395
6	0x3fd1125e	1.633373
7	0xbfb01005	-1.3754889
8	0xbe6d398c	-0.23166484
9	0xbfbc4cdf	-1.4710959
10	0x3fe90168	1.8203554
11	0x3f8dc604	1.1076055
12	0xbfa7c13b	-1.3105844
13	0x3fc979ad	1.5740258
14	0x3f4ef0e4	0.8083632
15	0x3ff5aaa6	1.9192703
16	0x3fd3fc40	1.6561356
17	0x3f8a70e5	1.0815703
18	0xbfbb4175	-1.4629351
19	0x3f6e6427	0.9312157
20	0x3df5e001	0.12005616
21	0xbf075e15	-0.5287793
22	0x3f8bf65c	1.0934558
23	0x3f682552	0.90681946
24	0x3f74a0ae	0.9555768
25	0x3fcb21fe	1.5869749
26	0xbe3bf618	-0.18355596
27	0xbfe3c81f	-1.7795447
28	0xbeedc8fc	-0.464424
29	0x3fa92c57	1.3216656
30	0x3e0c0b55	0.13676198
31	0x3fc42c5f	1.5326041
32	0xbfb3626b	-1.401441
33	0x3f9b4ab9	1.2132179
34	0x3f804408	1.0020761
35	0xbe9ec25f	-0.31007668
36	0x3ea05bb8	0.31319976
37	0xbf5a4f4c	-0.8527725
38	0x3f69bfe8	0.9130845
39	0x3e6877eb	0.22701995
40	0xbf9dc61b	-1.2326082
41	0x3fcdeb6a	1.6087468
42	0x3e7641ed	0.24048586
43	0x3f50930d	0.8147438
44	0x3e0c621d	0.13709302
45	0xbf6ed940	-0.9330025
46	0x3f846ce6	1.0345733
47	0x3f48a947	0.78383297
48	0xbdd1191c	-0.10209867
49	0x3f2fae19	0.68625027
50	0x3f85af7f	1.0444182
51	0xbf3b7cf6	-0.7323755
52	0x3f7e70bd	0.99390775
53	0xbfb07220	-1.3784828
54	0xbe91fbf3	-0.28512534
55	0x3f2d46f8	0.67686415
56	0xbe123181	-0.14276697
57	0x3c4d5b40	0.012533963
58	0xbe93a246	-0.28834742
59	0xbd4a8438	-0.0494425
60	0xbe662c39	-0.22477807
61	0x3e288eda	0.16460744
62	0xbe0223b6	-0.12708935
63	0xbdeb78be	-0.11497639

l2.bias f4 [8]
0	0x3e182669	0.14858402
1	0x3f523049	0.8210493
2	0x3f1e4116	0.61818063
3	0x3e008ecc	0.12554473
4	0xbe8f4360	-0.2798109
5	0x3ebe1886	0.37128085
6	0x3e683f98	0.22680509
7	0xbe0bde8d	-0.13659115

l3.weight f4 [14, 8]
0	0x3f077568	0.5291352
1	0xbff6707c	-1.9253078
2	0xc0044220	-2.066536
3	0xbfa5d0c5	-1.2954336
4	0x3f79a3d6	0.9751562
5	0x3f0b8361	0.54497343
6	0x3f9cb95a	1.2244065
7	0xbe8debea	-0.2771905
8	0xc00773b7	-2.1164377
9	0xbf95352e	-1.1656854
10	0x3e0b9319	0.13630332
11	0x3ed3ed67	0.4139206
12	0x3f2f629c	0.6850984
13	0x3f3dc8b1	0.74134356
14	0x3ee6ef2c	0.4510435
15	0x3e4a9622	0.19783834
16	0xbe69bcec	-0.22825974
17	0x3f7a90ea	0.9787737
18	0xc01afa00	-2.4215088
19	0xbfdcba7f	-1.7244414
20	0x3f04af91	0.51830393
21	0x3ed12383	0.40847406
22	0xc00fe33a	-2.2482438
23	0xbe646c98	-0.2230705
24	0x3f3637dd	0.7117899
25	0xc0110338	-2.2658215
26	0x3e8e0938	0.27741408
27	0x3fa16ce1	1.2611352
28	0xbfa77cc3	-1.3084949
29	0xbfa2d608	-1.2721567
30	0xbfea88fe	-1.8323057
31	0x3e1b65c6	0.15175542
32	0x3f22dfa4	0.636225
33	0xbe094095	-0.13403542
34	0xbd6c1160	-0.057633758
35	0xbfc0105b	-1.5004991
36	0xbbf38d1a	-0.007432592
37	0xbea0d1b2	-0.31409985
38	0x3e2b45d7	0.1672586
39	0xbdd76396	-0.105170414
40	0x3f41899a	0.7560059
41	0xc015be82	-2.3397527
42	0x3f7c5c3f	0.98578256
43	0xbfc7b8b0	-1.5603237
44	0xbee45564	-0.44596398
45	0x3e86e851	0.26349118
46	0xbf96a446	-1.1768882
47	0x3e12eb9c	0.1434769
48	0xc030ad3e	-2.7605739
49	0xbe187f4c	-0.1489231
50	0x3f4d4c33	0.80194396
51	0x3e868e18	0.26280284
52	0xc0155393	-2.333226
53	0x3f0526bc	0.5201223
54	0xc00cfa98	-2.202795
55	0x3eafaa8d	0.34309807
56	0xc005f060	-2.0927963
57	0x3f801c86	1.0008705
58	0x3edf8cf8	0.43662238
59	0xc025ca34	-2.5904665
60	0xc0154fce	-2.332996
61	0x3f174812	0.59094346
62	0xbe80a4a7	-0.2512562
63	0xbe90eb3e	-0.28304476
64	0xbf3ea75f	-0.7447414
65	0x3f785f60	0.9702053
66	0xc02b60e2	-2.6777883
67	0x3f744ce7	0.95429844
68	0xbf8a82bc	-1.0821147
69	0xbfb47f0e	-1.4101274
70	0xbeee58d7	-0.46552154
71	0xbd608fa8	-0.0548245
72	0xbf17bd71	-0.5927344
73	0x3cced410	0.025247604
74	0xbfe1ff39	-1.7656013
75	0x3f12cfb0	0.57348156
76	0x3f6bb83a	0.9207798
77	0x3ec923f0	0.3928523
78	0xbf1af5a9	-0.605311
79	0x3dc9c6a8	0.09852344
80	0x3f0a8164	0.54103684
81	0x3d8a3095	0.067475475
82	0x3e92a503	0.2864152
83	0xbe07401a	-0.13208047
84	0xbf49fc54	-0.7890065
85	0xbf99ba00	-1.2009888
86	0xbfa9f6a2	-1.3278391
87	0xbe20a072	-0.15686205
88	0xbe860009	-0.26171902
89	0xbf5de9df	-0.86684984
90	0x3f15dff0	0.58544827
91	0xc00140b5	-2.0195744
92	0x3f447f0b	0.7675635
93	0x3f888aa3	1.0667309
94	0xc0401fc9	-3.00194
95	0xbd9e6524	-0.07734135
96	0x3d08fc89	0.03344396
97	0xbfd00825	-1.6252486
98	0x3e02b6ee	0.12765095
99	0x3e4cf0b1	0.20013691
100	0x3e04734e	0.1293461
101	0xbe2966c2	-0.16543105
102	0x3f5e312e	0.8679379
103	0xbe0a4709	-0.1350366
104	0xbfb66e21	-1.4252359
105	0x3e98d78c	0.2985195
106	0x3ed08531	0.40726617
107	0x3f62b503	0.8855745
108	0xbfab6833	-1.3391174
109	0xc02dab68	-2.7135868
110	0xbfd81d68	-1.6883974
111	0x3e699e7e	0.22814366

l3.bias f4 [14]
0	0x3dd16797	0.10224836
1	0xbeb6e392	-0.35720497
2	0x3e07a9ac	0.13248318
3	0x3d2d77fa	0.042350747
4	0x3dbb3c1c	0.09142324
5	0xbdf95e73	-0.12176218
6	0xbd9c10d2	-0.07620396
7	0x3f53ba15	0.82705814
8	0x3d5184b3	0.051151942
9	0xbe82dac3	-0.25557527
10	0x3ec88968	0.39167333
11	0xbda4e014	-0.08050552
12	0xbe98ede1	-0.29868987
13	0xbdbf9eff	-0.09356498
